NNetworks/RollerBal/RollerBall/RollerBall-4858.pt (torch, 444217 bytes, 36 tensors)

network_body._body_endoder.seq_layers.0.weight f4 [128, 8]
00000000: 5fa7 1cbe 3622 07bf 8d77 9abe cf4c 32bd
00000010: 5ac4 2e3c 4281 883f b7f7 7ebd 3bac f33e
00000020: 7741 03bf 02ee 343f 51ba 103e 1f63 0dbd
00000030: 61c4 d3bd 30c1 28be a3b0 efbd 71d4 67be
00000040: 97df 203f 21ab 833e 05df fb3c f120 da3d
00000050: 7bdc 963e 0477 7bbd 8534 323f 7b23 b33e
00000060: 840a 92bd a267 1b3f 91de 943e 4af3 0e3f
00000070: e9cf 1f3d 9b6c 943d 0b14 59bc dc24 193e
00000080: 1c4b b03e 3b90 3bbf 14d0 673e a3cc 713f
00000090: 18d5 c33d f523 10be 6622 cc3b c434 c33d
000000a0: 3e75 fbbd 125b f1be 3962 f53e 4a09 9d3c
000000b0: ff69 4c3f 916b 3d3d 1ca6 8d3c 6ef0 0cbe
000000c0: b8ba e43d 6355 023e a7e2 37bf 76e0 273e
000000d0: 829e 90bd 95f0 883e bb19 193e 8e8b 123d
000000e0: f9d1 07bf 0c89 df3b 56e2 863e eed3 283d
000000f0: 7690 34bc 56ae a83e 41fb 0ebe 23a7 333c
00000100: e8a4 3a3e 1973 08be 01f6 733e 8b9b 8abe
00000110: a014 e73d 4b2c 943e 4ade 933e 03ea adbd
00000120: 5ed5 1bbe c17c 343e d980 033f 9db3 3cbd
00000130: 7db0 dbbe 0f30 a63d dc9b 8abe 0543 80bd
00000140: c49b 193e b397 07be 2b18 26bf 6987 063e
00000150: 2a96 6fbd 318c fbbe 6d78 93bd a2de 4abe
00000160: de0d 35be 5c31 e0bd 3bec 923e e907 92be
00000170: 9f96 2e3d d636 e3bc f59a bfbd 07c3 39be
00000180: 3bd8 8ebe 1fe2 383d 0f08 13bf 1e58 07be
00000190: 1f5f 203e 7d5e e5be 1453 5abe d341 79bf
000001a0: 7985 b03e cf50 c7be 63ce 333e e051 413f
000001b0: 4d2e fabe 1bda 393e 5b8e 163e ce62 c6be
000001c0: 99f0 71bc f6b9 203f 6186 d53e e7b4 9bbd
000001d0: ba99 973e aced 25be c29b 2ebd 12d0 a0bd
000001e0: 96b7 edbe d032 b3be 0c59 103f ae72 b2be
000001f0: e7e7 293e 9539 8f3e a744 93be 5e5a 213f
00000200: 9083 10bd ac55 e9be 7492 093d 271c 4dbe
00000210: 3b08 d4be 71db 3c3d c80d b33e 8173 0abf
00000220: 69ae 11be 19cc 30be 7ac8 b03e 4078 23bf
00000230: 4321 363d 5f82 003f 59f3 89be 455e 03be
00000240: ae39 04bf 9890 4c3e f4e1 373c 2475 bdbd
00000250: 7cbc 863d da09 05bf 9174 51be 2886 77be
00000260: d411 febe 3de4 2ebc 4f3c 0cbf 00e2 753e
00000270: b6f2 d8be 0039 073f eacf c0be dbc7 f33d
00000280: d597 363e 1912 6e3e 5c07 cdbe 2bd1 d63d
00000290: 9732 6ebe 7dcf cabe 4728 9fbe 649f 3c3e
000002a0: 9aa6 dbbe a81b 77bd 99bc eb3e 9651 1bbc
000002b0: 366b 2c3f aedc cebe 4436 58bf 55e7 233f
000002c0: 1b4a f13e be31 0c3e 17e0 3dbf 6b1e 00bf
000002d0: 2043 2d3e d630 35bf 4778 c0be c014 273e
000002e0: fd60 9dbe e2da 32bf ca0e 8e3e e240 d7bd
000002f0: af0a 6ebe baf6 9839 f9c9 5dbe 0030 4e3e
00000300: f9ff df3e 6abd 2ebe 4101 8dbe ea8c 793f
00000310: b256 ccbd a4b4 abba 0f7b 9fbd 454b 07bf
00000320: ca77 203c ee9f 9dbe 79f1 f53e 46ba 92be
00000330: 424d ae3d 66e8 96bb 0030 d3be d2c1 47bd
00000340: edf4 e13d 3066 bd3e d5da 23bf f72b b7bb
00000350: bb4d 083e d8ba 653f be32 643f 8442 003f
00000360: 228d fd3e 538f 953e 1219 b9be f43c babe
00000370: e368 eb3d d849 773e 2d91 bbbe b876 31bf
00000380: 3c0c c2be 2257 d43e 332c d6bd 9ebc 69bd
00000390: e068 32bf a226 3bbe c7bd dbbe d25d 82be
000003a0: 4b8f c63b d262 043f 9ca6 5a3f 16e8 9e3e
000003b0: 0ebb 20bf 46dc 2abe 38fc c53e db15 523d
000003c0: 8fcf 9ebd 2e6a 8fbe d487 0fbf 1cf0 033f
000003d0: 3ba9 36be 040c 3b3d acf9 083e b233 2e3f
000003e0: bb34 0f3e a246 58be 1f82 85be 75ab 6ebf
000003f0: 4698 1d3f d79a 9ebd 63be 343f d897 043f
-0.15298222 -0.52786577 -0.30169335 -0.04353028 0.010666931 1.0664446 -0.062247958 0.4759234
-0.51271766 0.7067567 0.14133574 -0.034518357 -0.10340191 -0.16479945 -0.11703613 -0.22639634
0.6284117 0.25716498 0.030745992 0.10650814 0.29465088 -0.0613928 0.6961139 0.34988007
-0.07130912 0.60705006 0.29076055 0.5583998 0.039016638 0.07247277 -0.0132494075 0.14955467
0.34432304 -0.73266953 0.2263797 0.94452876 0.09562129 -0.14076217 0.0062296866 0.095315486
-0.122782215 -0.47139794 0.479265 0.019169468 0.7984924 0.04624516 0.017291121 -0.13763592
0.11168426 0.12727885 -0.7183022 0.16394219 -0.07061483 0.2674605 0.14951222 0.03577762
-0.5305477 0.006821757 0.26344556 0.041217737 -0.01102077 0.32945508 -0.13963033 0.0109651415
0.18226969 -0.13325156 0.23824312 -0.27071795 0.11283231 0.28940043 0.2888053 -0.084919
-0.15218112 0.17625715 0.5136848 -0.04606973 -0.42908087 0.08114635 -0.27072036 -0.06262783
0.15000826 -0.13241462 -0.6488063 0.13137592 -0.058492817 -0.49130395 -0.07200704 -0.1981149
-0.17681071 -0.109469146 0.28695855 -0.2852166 0.042624112 -0.027736109 -0.093557276 -0.18140803
-0.27899346 0.04513752 -0.5743417 -0.13217208 0.15661286 -0.4479865 -0.21320754 -0.97366065
0.34476832 -0.3892884 0.17559199 0.75515556 -0.4886345 0.18149607 0.14702742 -0.38747257
-0.014766836 0.62783754 0.41704085 -0.07602864 0.29609472 -0.16203946 -0.04262901 -0.07852186
-0.46429127 -0.34999704 0.56385875 -0.3485312 0.1659237 0.2797362 -0.28763315 0.63028514
-0.035281718 -0.45573175 0.033586934 -0.2003027 -0.4141253 0.046107713 0.34971452 -0.54082495
-0.14226688 -0.17265357 0.3452795 -0.6385536 0.044465315 0.5019893 -0.26943472 -0.1282893
-0.5165051 0.19977033 0.011223305 -0.092508584 0.06578919 -0.5196816 -0.20454623 -0.2417227
-0.49622977 -0.010674533 -0.54779524 0.24011993 -0.42372674 0.5282135 -0.37658626 0.11903354
0.17831357 0.23249091 -0.40044677 0.104891144 -0.23261486 -0.39611426 -0.31085417 0.18420178
-0.42900544 -0.06032911 0.46042326 -0.009479901 0.6735109 -0.4040274 -0.844578 0.6402486
0.4712685 0.1369085 -0.7417006 -0.50046414 0.16920137 -0.7077764 -0.37591764 0.16316509
-0.3073806 -0.6986524 0.27745658 -0.10510422 -0.23246263 0.00029175525 -0.21659078 0.20135498
0.4374998 -0.17064443 -0.2754002 0.9748064 -0.09977473 -0.00131001 -0.077871434 -0.5284923
0.009794185 -0.3078608 0.48035792 -0.2865774 0.085108295 -0.004605341 -0.4124756 -0.048768826
0.11033044 0.36992025 -0.64005786 -0.005589958 0.13310902 0.89738226 0.89139926 0.50101495
0.49521738 0.2921091 -0.3615194 -0.3637463 0.11494615 0.24149263 -0.36634198 -0.69321775
-0.3789996 0.41472727 -0.10457649 -0.057064645 -0.69691277 -0.18276456 -0.42918226 -0.25462204
0.0060595623 0.5171329 0.85410476 0.31036443 -0.6278542 -0.1668559 0.3866899 0.051290374
-0.077544324 -0.28010696 -0.5606663 0.5153825 -0.17837994 0.045665756 0.13376492 0.6804763
0.13984959 -0.21120694 -0.26075837 -0.9323037 0.61560476 -0.07744377 0.7060301 0.51794195

network_body._body_endoder.seq_layers.0.bias f4 [128]
00000000: ed45 ff3b b8ef 123d 1ab3 34bb e7cd b83c
00000010: 7e29 37bc 22d3 433d d2cb 253c 7148 8f3c
00000020: b0b7 b63c 0bec ee3c d54e 70bc c42e 0c3d
00000030: b87a 393c 03ad 5b39 37d2 0c3d 879e 533c
00000040: d6f0 0a3c 35af 313c a2b6 ba3c a009 19bc
00000050: 1fb4 3a3c ad4e 9b3c 32e0 663c 14fb a33c
00000060: d8fb 25bc cbef cdbc 9854 343c a517 683c
00000070: 9917 8f3c f886 ee3c 93f3 9b3c 484f 6f3b
00000080: 5db7 d2bc 2d07 0a3d e7d0 5a3c e8f4 af3c
00000090: ac41 2a3a c577 033d e7a8 903c d981 e33c
000000a0: 8c12 8fbc a94c f43a 88e4 a93c f2a6 26bd
000000b0: 858c 153c b042 f33c b4e9 903c 1e8d 093d
000000c0: 273c 363c 42e0 c43c e532 fcbb 8385 d73b
000000d0: d372 8cbc 4c14 7abc e742 c83c 6a2a 0a3d
000000e0: 8a0c b83c ea8c 7dbb a20d 143d adac 7ebc
000000f0: 7d20 9ebc c75a b83c 8244 ea3c 25b7 023c
00000100: a222 583c a02a f13b 643f 5abc 5c5f c4bb
00000110: 8262 bc3c 4083 3ebc e184 f4bb 55e0 2b3a
00000120: 0032 413c 861c 103c 3972 a33c e7ec 4b3b
00000130: 638a 393b 50dc 78bb 4fb2 693c 7ff9 c23b
00000140: 78a2 c6bb 7321 a53b f316 0fbc 6831 dabc
00000150: 641a a9bb 0232 f33c 20c3 8cbc 266c ecbb
00000160: 5546 8aba 1c07 823b ac92 2f3c 1ae9 d13c
00000170: 4102 2f3c b96b f9bb 45b8 7b3b 570d bcba
00000180: 007f 89bc dc2d 413a 8eb0 a1bc a0f6 993c
00000190: 999f 74bc 5951 6abc b5b6 1c3c 53e3 86bc
000001a0: 6972 7fbb c96c 8fbb 1d6e 1d3c 42e0 a5bc
000001b0: fdb1 ab3c 21af f03a 4160 29bc c057 d0bc
000001c0: d6c9 44bc 6b20 953c eeae 1c3c dd1c 583c
000001d0: 6f2b 0ebb 790b 133c 1205 e539 be2f 7b3b
000001e0: 1407 823c e41b 1d3c 16cb 4a3c ad0d 9b3c
000001f0: 667f 9dbc 1a6b 0ebc 0784 aebb 9561 a0bb
0.007790318 0.035873145 -0.0027572573 0.02255912 -0.011179326 0.047808774 0.010119395 0.017490597
0.022304386 0.029165288 -0.0146672325 0.034224287 0.011320762 0.0002094992 0.034380164 0.012916214
0.008480271 0.010844995 0.022792164 -0.009340674 0.011395483 0.018958414 0.014091538 0.020017184
-0.010130845 -0.025138756 0.011006497 0.014165794 0.017467307 0.029117092 0.019037044 0.0036515761
-0.0257222 0.03369825 0.01335547 0.021479085 0.0006494771 0.032096643 0.017658664 0.027771877
-0.017464899 0.0018638569 0.020738855 -0.040686555 0.009127741 0.029694885 0.017689563 0.033581845
0.01112274 0.024032716 -0.007696497 0.006577195 -0.017144596 -0.015263628 0.024445964 0.033731855
0.022466917 -0.0038688728 0.036145814 -0.015544099 -0.019302601 0.022504224 0.02859712 0.007978235
0.013191851 0.0073598176 -0.013320778 -0.005992813 0.022996191 -0.011627972 -0.0074621295 0.00065565604
0.011791706 0.008795863 0.019951927 0.0031116547 0.0028311245 -0.0037973113 0.0142637035 0.0059501524
-0.0060618483 0.005039388 -0.008733499 -0.026634887 -0.0051606167 0.029686932 -0.017182887 -0.0072150407
-0.0010549525 0.0039681327 0.010716122 0.025623847 0.01068169 -0.0076117185 0.0038409394 -0.0014347237
-0.016784191 0.00073691993 -0.019737508 0.018794358 -0.014930629 -0.014301621 0.009565045 -0.016465819
-0.0038978106 -0.004376982 0.009608773 -0.020248536 0.020958895 0.0018362739 -0.01033789 -0.025432467
-0.012011012 0.018203935 0.009563191 0.013190475 -0.002169337 0.008974903 0.0004368206 0.0038328017
0.015872516 0.009589169 0.012377521 0.01892742 -0.019225787 -0.008692527 -0.0053257975 -0.004894445

network_body._body_endoder.seq_layers.2.weight f4 [128, 128]
00000000: 05ca f63c 8af1 083e 420f 1c3d eb90 1ebd
00000010: 3995 f93c e331 2bbe 1fbb 083e 055e 953c
00000020: c190 323d fa1f e83d 1b5b 8dbc 6679 b03d
00000030: 30c0 c4bc 5209 603e 0882 993c ce07 e43d
00000040: 5121 97bd 619a 50be fbcf f13c 1076 7abd
00000050: e941 49bd 3ee1 62bc 97a0 293c d165 57bd
00000060: e47f e83c 436f b9bb 21a5 663d 252d 9a3d
00000070: a189 b9bd bb53 c53c 8243 233d e26f e2bd
00000080: 6f08 c63d 61ee 87be 2d79 b13d 4866 81be
00000090: d8cb b8bc da81 5dbd 56ca 1a3e 6535 8c3c
000000a0: 78a7 debc 9b79 67bd 30df 9f3d 52e5 6cbd
000000b0: 593d 18be 70ee 0ebe 62b1 483d d808 96bd
000000c0: 4888 b23d 5b15 c73d 859b 86bd cc25 bebd
000000d0: 5a66 c33c c463 1abe a8a0 b43d babe 8c3d
000000e0: 7731 61bd 42b9 34be c2ad 04bd 924c 1abe
000000f0: 1ff6 19bc cc1f 99bc 9c26 be3d 2c4e 5ebe
00000100: 9432 7c3b 55e2 99bd 86be 133e 5c34 6ebd
00000110: a45f 943d 144d 323d f68e a7bd 5389 883d
00000120: d59c cabd 6c22 90bd b521 9cbd d45f 993d
00000130: d468 8dbd f185 a03d 692e 9dbb ae6e a2bd
00000140: 64d0 bebc 3b3b a23d f1ab c73c e752 b9bd
00000150: ccc4 3abc 028e 55be b4fe dabd 87e9 803a
00000160: 6d63 cbbd e9c0 37bc 2cbc ac3d a94e 36bd
00000170: c0ca 933c 0fdf c23c 1a83 b9bd 0bda 86b9
00000180: 1799 9a3d 2437 663d 44db 02be 43cd c43d
00000190: 141c ba3c 7289 c4bd 905b a23c d253 28be
000001a0: 7b40 50bc 7297 3a3d 37a0 6ebd 60ee 323e
000001b0: 682e 6cbd 93e2 27bd 3ef2 51bd 9f18 48bd
000001c0: f8e8 73bd 9107 f9bd 4219 773a aaa4 393d
000001d0: 0e56 4d3e 8828 44bc 1c9c af3c 0485 c63d
000001e0: b17e 653d 0053 413e 1ce1 4fbd 6b68 113d
000001f0: 9fa8 d5bd 9046 5e3d 28db 2e3d 9e57 b0bd
00000200: ed13 fc3d 0c90 953d f663 973d 76bf 1c3a
00000210: eb3b 273d 21c1 f1bd fb80 4fbc 464d 903d
00000220: 4bee b1bc 4ef6 4b3d ac2a e2bd 4b51 803c
00000230: 6838 f63d 09f4 0abe 1ae4 643d 1135 0bbe
00000240: e661 4e3d 8c67 1b3d 9dbe 4f3c c319 92bd
00000250: c9d0 d0bc 882d e03d ca12 213e e78a 85ba
00000260: 8395 053c ba4e 9bbb fe4e 51bd 818f 86bc
00000270: 0129 743d 893a 353c ccfd dc3d 5a56 8abd
00000280: ec12 43bd 61ec 34be b70d 15bd 0152 c0bd
00000290: cc3a fd3c 0868 d1bd 84b6 87bd fa57 e13d
000002a0: 79f6 7a3b ef31 813d 0b7a b83c 04d0 a63d
000002b0: b568 e6bc b74e 263d dcb2 8e3a cb7a 9e3b
000002c0: e1fb 353e 68c3 f9bd 8b8c 9eb9 7d7c 00bd
000002d0: 9275 d3bc 5931 78bd 5e0d 913d bc7b f2bd
000002e0: 1b68 333d 5621 3d3d 8a8b 383a 6cd9 eebb
000002f0: 579c 163e 6e8f 253e 7a95 81bd 754f a8bc
00000300: 250e c13d d47e 52bd 0797 80bd cac4 34bd
00000310: 1444 ba3c 736e 323b 0acf 56bd 286e bcbd
00000320: 4d1e a0bd ebbf c33d 1c68 0abd 5f90 1c3e
00000330: b6bb 62bd cd3c 463c ca74 aebd 37a1 ea3d
00000340: 5737 1d3d 0ecf e83d 8860 9ebc 594a c8bc
00000350: ee5f ae3d 9a69 d2bc 9dd4 0f3d 6528 90bd
00000360: 2ad9 263d 3064 2c3e 68da 803d fb1a 8abd
00000370: 0d87 9e3d e523 f2bd 8ea4 80ba 4064 423a
00000380: 1333 e93d 4f47 c6bb 80d2 b6bc 11c6 d43d
00000390: 4c1a 23be 0b22 9fbd f835 743d fd8b 4e3d
000003a0: 8d8a 2dbd 4bae 0bbe f213 9dbd 6c68 023e
000003b0: eaae ec3c 3cb6 bfbd 6217 1fbc 4bb1 3ebd
000003c0: 1707 233d 73f0 9fbc d85f e2bb e326 f43d
000003d0: 298b 083d e4f3 f5bd ad37 96bc 8daa 863d
000003e0: 989f 933d 2be1 1a3e 3f0a e7bc fc07 30bd
000003f0: acbc 0fbd 7493 c2bc f624 8a3c 152b 463d
0.030125627 0.1337339 0.03810049 -0.038712423 0.030466663 -0.16718249 0.13352631 0.018233309
0.04359508 0.11334224 -0.017255357 0.08616905 -0.024017423 0.21878555 0.018738762 0.11134301
-0.073794015 -0.20371391 0.029518118 -0.06114775 -0.049135122 -0.013847647 0.010353229 -0.052587334
0.028381296 -0.0056590154 0.056309823 0.07528142 -0.09059454 0.024087777 0.039859302 -0.11056496
0.09669577 -0.26549056 0.086656906 -0.25273347 -0.022558138 -0.054078914 0.15116248 0.017115304
-0.027179465 -0.056512456 0.078062415 -0.057835884 -0.14867152 -0.13958144 0.04899729 -0.073259056
0.087174 0.0972087 -0.06572632 -0.09284553 0.023852516 -0.1507712 0.08819705 0.06872316
-0.054978814 -0.17648795 -0.03239227 -0.15068272 -0.009397059 -0.01869192 0.09284708 -0.21709508
0.0038482295 -0.075138725 0.14428148 -0.058155403 0.072448045 0.04353054 -0.081815645 0.066668175
-0.098931946 -0.070378155 -0.076236166 0.07488981 -0.0690476 0.07838047 -0.0047967923 -0.07931267
-0.023292728 0.079214536 0.02437398 -0.090490155 -0.011399459 -0.20854953 -0.10693112 0.0009835222
-0.09931073 -0.011215427 0.084343284 -0.04450861 0.018041015 0.023788003 -0.09058209 -0.00025720926
0.07548731 0.05620493 -0.12778956 0.09609463 0.022718467 -0.09596528 0.019819051 -0.16438225
-0.012710686 0.045554586 -0.05825826 0.17473745 -0.057661444 -0.040987562 -0.05125641 -0.048851606
-0.05954835 -0.12159646 0.0009426066 0.04532305 0.20052359 -0.011972554 0.021436743 0.096933395
0.056029025 0.18879318 -0.05075179 0.03549997 -0.104325525 0.054266512 0.042689472 -0.08610462
0.12308488 0.073028654 0.07392113 0.00059794576 0.040828627 -0.118044145 -0.012665029 0.07045989
-0.021720072 0.04979544 -0.11043295 0.015663764 0.120224774 -0.13569655 0.055881597 -0.13594462
0.050386332 0.037940547 0.012679723 -0.0713382 -0.025490182 0.109461844 0.15729824 -0.0010188491
0.008153322 -0.0047396095 -0.051100723 -0.01642585 0.059609417 0.011061319 0.107905954 -0.067547515
-0.047625467 -0.17668296 -0.036390033 -0.09390641 0.030911826 -0.102249205 -0.06626609 0.11003108
0.0038293882 0.06308352 0.022519132 0.081451446 -0.0281261 0.040602412 0.0010887044 0.0048364154
0.17771865 -0.12195474 -0.0003024082 -0.03136872 -0.025812898 -0.060593937 0.07082628 -0.11840007
0.043800455 0.04617437 0.0007039836 -0.0072891023 0.14708076 0.16167995 -0.063273385 -0.0205457
0.09426526 -0.051390484 -0.06278806 -0.044132985 0.02273754 0.0027226477 -0.05244354 -0.09200698
-0.078182794 0.0955809 -0.033790693 0.15289448 -0.055354796 0.012099457 -0.085183695 0.114565305
0.038382854 0.113676175 -0.019333139 -0.024449514 0.08514391 -0.02568512 0.035114873 -0.07038955
0.040734448 0.16835093 0.06291658 -0.06743427 0.07740603 -0.118232526 -0.0009814666 0.0007415451
0.11386695 -0.006050981 -0.022317171 0.10389341 -0.15928 -0.07770165 0.05962178 0.050426472
-0.04236846 -0.13640706 -0.0766982 0.12735146 0.028892 -0.0936093 -0.009710165 -0.0465558
0.039801683 -0.019523835 -0.006908398 0.119214796 0.03333584 -0.12009409 -0.018337095 0.06575499
0.072081745 0.15124957 -0.028203128 -0.042976364 -0.03509204 -0.023751952 0.016863327 0.04838093

network_body._body_endoder.seq_layers.2.bias f4 [128]
00000000: 3755 7f39 ff69 f3ba 9d7e 153c 0e92 57bc
00000010: e0f0 b43b fc9e fd3b 8264 53bc d3ad a2bb
00000020: 8f9c 6fbb 474d 093d 02bc 0fbc 21a7 3c3c
00000030: 038f bb3b 6075 adbb 7e6c 76bb 3265 373c
00000040: 37fd 683c 1122 cabc f7d7 183d 5ffe ad3b
00000050: cf86 30bc b8bf 51bc 8589 3c3b 1109 c8ba
00000060: 5a18 433c 746f cd3a 2bee 15bc a928 97bb
00000070: 78d6 4c3d d687 dcba e9c0 6cbb 9ea8 133b
00000080: 5080 4dbb cc2f c93c 59eb 883c 1162 3e3c
00000090: 4fc0 fa3b 0d9b 333c bf9f 873b 2348 0b3b
000000a0: c310 183c 5d2e 6ebc 8852 3c3c 561d 8f3b
000000b0: 00d7 b03c 0772 c5bb 0c4f c0ba f509 6bbc
000000c0: 802e 78bc 96a9 5cbb 6b97 933b d817 833c
000000d0: fb51 0e3d 1292 31bc 3ad3 1a3b 5d33 77ba
000000e0: e80b 1b3a 0c63 803b d922 f63a c23b 1ebb
000000f0: f433 6c3c 5181 09bc f9ec ce3c b6b2 413b
00000100: ddb9 333d a64e 353d 26b0 9eba 1949 9c3c
00000110: c1ad 2bbc a4d5 883c f1a5 f53b 8d10 ce3c
00000120: 108d be3a 87d4 2c3c accf 7a3b a568 473c
00000130: 8f1f c1bb 50af ee3b 3a7d 6b3b 712b e6ba
00000140: c67c 1b3d d42a 203b 3c37 b83a 4a59 78bc
00000150: 8770 23bb bcfd cebb d15c c33c 5cff 333c
00000160: 26b8 053a ecfc 903c 5e4e 3c3c b1b2 463c
00000170: cbdb faba 1cb9 483d 0d81 af3b 9f25 073b
00000180: 62b4 ad3b 3bda 4a3c fb59 193d df61 653a
00000190: cd0e 9f3a 40ca 71bc 48a0 523c ef60 bd3c
000001a0: 725a 6d3c bd2d 033d b842 4abb 6b67 883c
000001b0: 8cc0 9a3c f355 ec3b 42b2 943c 7afe 043d
000001c0: 8e31 77bb 2189 133c 456a eaba 5d23 aa3b
000001d0: cccc e5bb 48f3 193d 6f7e d2bc c528 f93b
000001e0: 04ee a13b 2ed1 26bc a9b4 2b3c fc17 003d
000001f0: 4290 1d3c 497f ddbb df74 553c 7b2d 5e3b
0.0002435044 -0.0018571018 0.009124425 -0.013157381 0.0055218786 0.0077398997 -0.012902381 -0.004964569
-0.0036561822 0.033520963 -0.008772852 0.011514456 0.0057238354 -0.005293533 -0.0037601287 0.01119356
0.014220527 -0.024674447 0.037315335 0.0053098644 -0.010774328 -0.012802057 0.0028768491 -0.0015261491
0.011907661 0.0015673474 -0.009151022 -0.0046130014 0.05000922 -0.001682515 -0.0036125726 0.0022530924
-0.0031356998 0.024558924 0.016713785 0.011620061 0.0076523195 0.01096226 0.0041389163 0.0021252714
0.00928134 -0.014537421 0.011494286 0.004367511 0.021586895 -0.006025556 -0.0014671995 -0.014345636
-0.015147805 -0.0033670417 0.0045041344 0.01600258 0.03474615 -0.0108380485 0.0023624436 -0.0009429956
0.0005914555 0.0039180573 0.0018778696 -0.0024144505 0.014416683 -0.008392648 0.025259482 0.0029555983
0.043878425 0.044264458 -0.001210694 0.019077824 -0.010478438 0.016703434 0.0074965884 0.025154376
0.001453789 0.010548717 0.0038270755 0.012170945 -0.0058936547 0.0072840825 0.0035932795 -0.0017560554
0.03796079 0.002443959 0.0014054547 -0.015158007 -0.0024938898 -0.0063168686 0.02384797 0.010986175
0.00051009876 0.017698728 0.011493294 0.012127564 -0.001913899 0.04900466 0.00535596 0.002062179
0.0053010443 0.012381132 0.037439328 0.00087502407 0.0012135148 -0.014757693 0.012855597 0.02311751
0.014486896 0.03202604 -0.0030862521 0.016650876 0.018890642 0.0072123944 0.018151406 0.03246925
-0.0037718746 0.009004862 -0.0017884454 0.005192204 -0.007012939 0.037585527 -0.025695054 0.007603737
0.0049417038 -0.010181708 0.010480084 0.031272873 0.009616913 -0.0067595583 0.0130283525 0.003390162

action_model._continuous_distribution.log_sigma f4 [1, 2]
00000000: b19a 753c 2745 b23c
0.014990495 0.02176149

action_model._continuous_distribution.mu.weight f4 [2, 128]
00000000: 5eb4 8bbb d056 96bc d9a2 b03c 040f f5ba
00000010: ee15 1d3c 82a8 60bd 5825 783b 6bf7 0fbc
00000020: 2a55 313c 6292 15bd f07c 493c 3c0c 88bc
00000030: 5f48 e9bc 17fa 9e3b 43fb d93c 0049 023d
00000040: d84f 053a b057 a33b 69c5 423d 843a 523c
00000050: 66c7 143c 591d 553c e9d6 cbbc 8b80 3a3c
00000060: 0b0a 193d 54c6 fe3b 0809 11bc 7a98 17bc
00000070: e6b9 33bd 3086 d6bc a31f 0bbc 58c9 fb39
00000080: 27f2 7fbb 839c babc f812 bd3b ffa4 0ebd
00000090: 69e6 eabc 4f06 efbb eca2 393c a4c1 f43c
000000a0: 42eb e73c 9680 47bc 0558 dfbc e4e2 96bc
000000b0: fa33 85bc d50e aa3c 87d4 d93c c4d8 96bc
000000c0: 7999 18bc f5ff fcbc 27cb a83c a099 2f3d
000000d0: b452 92bd 19a8 22bc ed03 39bb 6bd1 533c
000000e0: 6bb1 5bbb 8f5d 7d3c 7baf 80bc 9e0d 91bb
000000f0: e5a4 883d c574 84bb ca81 f7bc a3a7 3d3d
00000100: a805 7d3d 75a0 53bd 42c7 41bc 8ccc f8bc
00000110: 3cc5 983a 5ae2 d4bc e17a 343d e086 4fbd
00000120: 211e 83bc 670b a0bc 609f 5c3c 9de8 253d
00000130: e9e3 5c3b d1b6 e63c d6ce 873b ede0 d53b
00000140: 92a0 fbbc 6555 403c bfdc e63c 89e3 b43b
00000150: c304 d6bc 92ce c1ba 2c29 233c 15b6 a7bc
00000160: 28b0 50b9 3d1e d7bc b2a2 c6bc 9268 b23c
00000170: 7be5 a33c e04f abbc 1f73 013d 348c cf3c
00000180: 42e0 0abd 1b3c bfbb d5a5 113d e83d 723b
00000190: 16c5 1ebc 03f2 6a3b 7a6f a83c 32cc 223d
000001a0: d833 f03c 2268 323d 98e4 c03c 5873 cabc
000001b0: e927 16bd feac 1dbd 9bff 0dbd 7bb4 a9bc
000001c0: 08dd 99bc 4234 843c 1a54 f8bb 2b3e 7e3c
000001d0: 06d1 a3bb 4e08 f7bb 7ea0 e73b fcd2 8cbd
000001e0: f880 c93c c3fb bb3b 92b8 34bd 6c31 e8bc
000001f0: 2736 14bc b056 af3b 2591 7cbc cb19 79bc
00000200: e371 efbc f1dc 02bc 010e 26bd 05a4 a9bc
00000210: 01ed aebc 2e82 9c3a 8f0f ecbb 4d2f c13c
00000220: 03d0 9d3c 6339 9d3a cd04 3abd 7904 fa3c
00000230: ed6a 0dbd 0d46 11bc bc88 78bc ca76 6dbc
00000240: 9e7a 273d 5f75 283b 3f8a 1fbd 52de 243c
00000250: 3d97 53bb a05a 9bbc a48c 663c 2969 cd3b
00000260: a10c edbc 7e5d 31bd 8f9f cdbb bb27 063b
00000270: 2dbe 663b 0579 dd3c 12e0 29bd 17dd f4bc
00000280: c1d8 2bbc 0ad3 c93c cdbc f13c e670 033c
00000290: de15 323c 03c1 263d f27e 2b3d aba6 b3bc
000002a0: f504 ddbc fd66 fbbc 7d51 533d 3747 963a
000002b0: 1a3e f73c 9281 4c3c 1537 b13c 1de8 fbba
000002c0: 224a b2bc 70b9 a5bb 47ec 9bbc 35ee c6bb
000002d0: 42fe b7ba 9988 c4b9 645a e13c c30f b6bb
000002e0: 4e08 c63c 77d9 db3b 85e6 50bc a8c7 12bd
000002f0: 945b bbbb 6c3a eb3b a120 983a 46d0 84bc
00000300: 746a e03b 8a85 3a3d 55fc 593c 623b 1b3d
00000310: 1f1c f33b c06b 063c 96d3 803b e193 853c
00000320: 9ed8 9abc 6ac1 193d d546 6dbc cc11 d3bc
00000330: 75a8 5d3c 4ce5 84bc e972 adbc ebb4 d0bc
00000340: eeae 523d eda6 413d 01b6 1e39 2e3b d339
00000350: ee64 8d3c 646d b9bc 020a 453d 8ca9 e03c
00000360: df5c 8c3c 50fd 73bc 386c 153d 9164 503d
00000370: 5fa7 3cbc 8a74 063d d806 19bd f1f3 c0bc
00000380: 4b96 f1bc cc59 023d dd77 153d 08ae 01bb
00000390: 99d8 043c f949 9ebb f96a 0b3d fa43 4dbd
000003a0: e77b 2d3c fdba 1cbd 5e59 cdbc ef9e 4c3c
000003b0: 9fa9 3c3c 3977 b7bb 256a 113d 2d78 333d
000003c0: 7960 62bc 6464 f93c f245 c93b feb9 58bd
000003d0: 0d00 113c 1566 483d a130 233a 53ac 95bc
000003e0: ca5a 203d 476a 7abc 9178 263d 2ff6 413d
000003f0: 2e23 69bd 0e0e 54bc d3e1 e73c 6068 8d3c
-0.004263445 -0.018351942 0.021562027 -0.0018696492 0.009587748 -0.0548482 0.0037864055 -0.008787016
0.010823527 -0.036516555 0.012297854 -0.016607396 -0.028476892 0.0048515904 0.026609069 0.0318079
0.0005085445 0.0049848184 0.047551546 0.012831334 0.009080743 0.013007485 -0.02488275 0.011383186
0.037363093 0.0077751074 -0.008852251 -0.009252662 -0.04387846 -0.026187032 -0.0084914295 0.00048024463
-0.0039054246 -0.022779709 0.0057700835 -0.03482532 -0.028674321 -0.007294453 0.0113303475 0.029877491
0.028310422 -0.012176653 -0.02726365 -0.018418737 -0.016260136 0.020759026 0.026590599 -0.018413909
-0.0093139345 -0.030883769 0.020604683 0.042871118 -0.071446806 -0.009927773 -0.00282311 0.012928347
-0.0033522497 0.015464201 -0.015708676 -0.004426672 0.06672076 -0.0040422403 -0.030213255 0.04630245
0.061772972 -0.051666696 -0.011827292 -0.030370973 0.001165546 -0.02598684 0.0440625 -0.050665736
-0.016005578 -0.019536687 0.013465732 0.04050504 0.003370518 0.028163346 0.00414453 0.0065270574
-0.030716214 0.01173911 0.028181432 0.0055202884 -0.026125317 -0.0014786294 0.009958547 -0.020472566
-0.00019902049 -0.026259536 -0.024247501 0.021778379 0.020006886 -0.02091211 0.03160393 0.025335409
-0.033905275 -0.0058360226 0.03555854 0.0036963169 -0.009690544 0.0035849817 0.020560969 0.039745517
0.029321596 0.04355634 0.023546502 -0.024713203 -0.036659155 -0.038495056 -0.034667592 -0.020715943
-0.018782154 0.0161382 -0.007578385 0.015517752 -0.004999283 -0.007538832 0.0070686927 -0.068761796
0.02459763 0.0057367994 -0.044121332 -0.028343879 -0.009046114 0.00535091 -0.0154154645 -0.015203903
-0.02922911 -0.007987247 -0.0405407 -0.020708093 -0.021353247 0.0011940652 -0.007204003 0.023582125
0.019264227 0.0011995252 -0.045414735 0.03051971 -0.0345258 -0.008866799 -0.015169319 -0.014493654
0.04088842 0.0025704724 -0.0389502 0.010062771 -0.003228619 -0.018964112 0.014071617 0.0062686396
-0.028936686 -0.04330205 -0.0062751244 0.0020470459 0.0035208568 0.027035246 -0.041473456 -0.02989058
-0.01048869 0.024636764 0.029508973 0.008022523 0.010869471 0.040711414 0.04186911 -0.02193006
-0.026979903 -0.030688757 0.051591385 0.0011465315 0.03018098 0.012482064 0.02163271 -0.0019218955
-0.021763865 -0.0050575063 -0.019033564 -0.006070877 -0.0014037567 -0.00037485806 0.027508922 -0.005556078
0.024173882 0.0067092734 -0.012750273 -0.03583494 -0.005717704 0.0071785953 0.0011606404 -0.016212594
0.0068486277 0.04553751 0.01330479 0.03789843 0.007419124 0.008204401 0.003931473 0.016305866
-0.01890212 0.03753797 -0.01448222 -0.025765322 0.013528933 -0.016222619 -0.021172957 -0.025476893
0.051436357 0.047278333 0.00015135856 0.00040289148 0.017260041 -0.02263517 0.048105247 0.027424596
0.017134128 -0.014891937 0.03648016 0.050877158 -0.011514514 0.032825984 -0.037360042 -0.02355382
-0.02949061 0.03182392 0.036491264 -0.0019787569 0.0081082815 -0.0048305956 0.034037564 -0.050113656
0.010588623 -0.038264263 -0.025067028 0.012489065 0.01151505 -0.0055989292 0.035501618 0.04381578
-0.013816946 0.030443378 0.0061423713 -0.05291175 0.00885011 0.048925478 0.0006225203 -0.018270647
0.039149083 -0.015284128 0.040642325 0.04735392 -0.056918316 -0.012942804 0.028305924 0.017261684

action_model._continuous_distribution.mu.bias f4 [2]
00000000: 3f1a b9ba 0463 143c
-0.0014122202 0.00905681

exp_avg f4 [128, 8]
00000000: 9656 ca3a 4809 7639 7120 a339 2113 9f3a
00000010: 0214 8e39 786e 85ba b9d6 d6b9 a5e1 5c39
00000020: 8823 24bb e206 c239 aeca 453b f90c 89ba
00000030: 769a bf39 44dc 2b3a 1f0d aa3a 2c2c 573a
00000040: 14d3 9bb9 5bb0 d5b8 3af2 21ba 0d7e 18ba
00000050: efb4 deb8 6c97 a3ba db7a cab7 545b ccba
00000060: 77e2 81b9 97b6 6339 1435 1fba 5e5b 85b9
00000070: e8fd 8239 2e55 03bb ad34 073b ac31 65bb
00000080: cae7 ea39 4810 3339 eca0 e5ba 2a1b c3b9
00000090: 7a0d 2b39 9ed2 82ba fb60 783a 078c 0dbb
000000a0: 3631 91bb 1116 c639 676b 413b 8b73 76bb
000000b0: b859 9439 d8ec 3d3b f9db 8338 d59e 363b
000000c0: 9a4b 6538 0a19 ea38 234f fab9 7a27 37b8
000000d0: 983a e838 1287 8ab9 620d 6db9 85d6 29b9
000000e0: 02cd 33bb b07d d939 f91a 0e3b 8f1e 4abb
000000f0: ee90 be39 c5ef ee39 b112 cf3a f12e 6939
00000100: c805 e9ba 9dfa b8b7 1346 b33a 1a2a 83ba
00000110: 1120 3fb7 3b9c 0939 aa24 08ba 4b4a e239
00000120: d6ff fbba 3066 9339 7664 033b a674 39bb
00000130: 3a7c dd38 bd39 783b 9bd5 cdba 7544 933b
00000140: 4679 b8b9 566e a6b8 fd7e b539 6b33 8cb8
00000150: c98c a8b8 21a6 1a38 687e 4cb9 9f80 fdb7
00000160: 0a63 93bb 9efb 0a3a 169b 733b 57ee 19bb
00000170: 175c d939 3e0c 633b 4544 4eba 2189 883b
00000180: 10ed ea39 730c 56b7 d3bb f2b9 8304 053a
00000190: dc0a fab6 bd4f 6b39 e4ec 423a 2817 68b9
000001a0: 3831 9db9 efb9 fab6 f2d4 313a f9e2 2c3a
000001b0: 0855 4ab7 7a95 1f3a 00dd 2839 1283 823a
000001c0: 538b 96bb 3862 8b39 c6cd 503b 6935 3abb
000001d0: c13b 4239 442b 363b 68e8 093a dbc6 253b
000001e0: 4623 64bb d734 113a c8b9 9b3b d5ce 48bb
000001f0: 4460 d439 e906 dc3a fe6e 813a 01e1 673b
00000200: a5f7 013a 3ff4 1b39 865d d0b9 48dc d839
00000210: f56c 1e39 5956 5a39 7451 3e3a d3f0 9fb8
00000220: 7931 25bb a8b3 2c39 1c13 003b cdd7 a4ba
00000230: 6ada 1339 3614 a6ba c013 703b bd81 fbba
00000240: 2406 f9ba c195 0c39 6e82 133b a4c4 7139
00000250: c9c2 2339 3f35 9339 4c78 4c3a 9d3d c238
00000260: 8f16 2e3a 6b9d 51b8 10b6 fbba aa29 333a
00000270: 809e c837 c95b 9aba 7813 753a 4747 12bb
00000280: 6434 5bba 0638 3e3a 3db6 edb9 da9f 0a3a
00000290: 01da 473a 2b35 8c3a ce5d 34bb 4484 423b
000002a0: 9c0e 51bb ea30 e439 156e 6c3b 1f0c 51bb
000002b0: 4674 9239 a30d 8a3b 22a4 42ba e805 b33b
000002c0: 5ad8 8cb9 2ef3 8c39 0da7 0aba 227f 85ba
000002d0: 300a 8a39 0d80 f738 9f3f 2bba 1cd7 553a
000002e0: 350b 24bb 5e8a 9539 c251 253b a67e 56bb
000002f0: 6330 1f39 bb98 cd3a d2d1 023a 271e ea3a
00000300: 6ad9 48ba f12d 81b9 ba82 533a 61ef adb9
00000310: 8c1b 83b9 8463 35b4 46c5 17ba f56e 3839
00000320: 89b8 eeba d96e 7c39 2b95 f23a da55 b0ba
00000330: f09d 0139 2730 293b b5ef 4bb9 f7d0 393b
00000340: 52b4 dc3a fcad d739 0db5 87bb 07e4 203b
00000350: a5e1 fd39 41c6 1fbb ec91 2e3b 01b5 8bbb
00000360: e0fa 253a 4b7b 1f3a 4e9a d3ba 9745 0638
00000370: ad5b 193a 2db5 2f39 6008 7a39 fdb2 d639
00000380: 935d 4c39 558c e236 e696 78ba 7ae5 783a
00000390: 9fe9 6438 278f c039 be15 813a e2f5 1cba
000003a0: 0b44 41bb a38f b939 28e9 de3a 4fb4 9aba
000003b0: aaa7 c439 313a f0b9 81a4 4a3a 3603 1aba
000003c0: 5d50 c13a 1d6d b239 e0c9 19bb 228c 6b3b
000003d0: 9f84 f039 5be8 1bbb 39ff 953a 3baa 23bb
000003e0: 30a2 393b c496 77b9 06d3 23bb eaf6 a33a
000003f0: e373 41b9 d147 8bbb b32a 4b3b cb97 b7bb
0.0015437182 0.00023463846 0.00031113953 0.0012136438 0.00027099258 -0.0010180017 -0.00040977242 0.00021064894
-0.0025045592 0.00037007692 0.003018062 -0.0010456137 0.0003654544 0.00065559545 0.0012973881 0.0008208181
-0.0002972117 -0.0001018948 -0.0006177757 -0.0005817123 -0.000106194864 -0.001248104 -2.4137486e-05 -0.0015591183
-0.00024773527 0.00021716427 -0.0006073278 -0.0002543581 0.00024984707 -0.0020039785 0.0020630762 -0.0034972234
0.00044804654 0.00017076836 -0.0017519272 -0.00037213537 0.00016312851 -0.0009980982 0.00094749004 -0.0021598355
-0.004430915 0.00037781944 0.002951348 -0.003760549 0.00028295605 0.0028980281 6.28754e-05 0.0027865667
5.4668264e-05 0.000111626534 -0.00047742677 -4.3667365e-05 0.00011073536 -0.00026422046 -0.00022607067 -0.0001619701
-0.0027435427 0.0004148311 0.0021683557 -0.0030840968 0.00036347605 0.0004557354 0.0015798417 0.00022238099
-0.0017778212 -2.205121e-05 0.00136775 -0.0010007054 -1.1391953e-05 0.00013123539 -0.00051934517 0.00043161432
-0.0019226025 0.0002811416 0.0020048893 -0.0028298288 0.0001056124 0.0037876212 -0.0015703918 0.0044942447
-0.0003518557 -7.9360485e-05 0.00034617624 -6.6852976e-05 -8.0370875e-05 3.687118e-05 -0.00019502046 -3.0219844e-05
-0.0044978904 0.0005301776 0.0037171296 -0.002348801 0.00041458078 0.0034644748 -0.00078684493 0.0041667377
0.00044808583 -1.27582925e-05 -0.00046297777 0.00050742197 -7.451845e-06 0.00022441051 0.0007435812 -0.0002213387
-0.00029982044 -7.472226e-06 0.00067837455 0.0006595101 -1.2059936e-05 0.00060876424 0.00016104057 0.0009957275
-0.0045942455 0.00026585325 0.0031860932 -0.0028413183 0.00018523542 0.0027796784 0.00052607665 0.002529553
-0.0034811064 0.0005539185 0.0047523715 -0.003064086 0.00040507514 0.0016786727 0.0009874997 0.0035381916
0.00049578614 0.0001487294 -0.00039742532 0.00041362853 0.00015108644 0.00020822267 0.0007260062 -7.626568e-05
-0.002520649 0.00016470125 0.001954264 -0.0012576521 0.00014100378 -0.0012670818 0.0036632866 -0.0019188445
-0.0018999022 0.00013407228 0.0022508162 0.00023056805 0.00015617454 0.00028077696 0.0007799908 9.262117e-05
0.0006640935 -4.997609e-05 -0.0019204039 0.00068345165 2.3915665e-05 -0.0011776622 0.00093489094 -0.0022320317
-0.0008361994 0.0007256273 -0.0004533994 0.0005288102 0.00076237327 0.0010696998 -0.0027521732 0.0029680887
-0.0031899577 0.00043523993 0.0036076356 -0.0031898094 0.0002793392 0.0042130514 -0.00074249704 0.0054633506
-0.00026864075 0.00026884064 -0.0005289175 -0.0010184983 0.00026329 0.00011801729 -0.00065326126 0.0008157359
-0.0025031094 0.00028522586 0.0025225733 -0.0032729297 0.00015181447 0.0015685776 0.0004990372 0.0017861769
-0.0007661792 -0.00024639026 0.0008068491 -0.00033175483 -0.0002500679 -1.6893142e-07 -0.0005789589 0.00017588942
-0.0018212955 0.00024073887 0.001850759 -0.001345332 0.00012361235 0.0025816055 -0.00019448886 0.0028353313
0.0016838408 0.00041137624 -0.004141456 0.0024549977 0.0004842404 -0.0024379643 0.002663727 -0.0042635207
0.0006331634 0.0006083741 -0.0016144009 3.20129e-05 0.00058501476 0.00016756794 0.00023844978 0.00040950617
0.00019489815 6.7516617e-06 -0.0009482935 0.0009494644 5.4577013e-05 0.0003672775 0.0009848399 -0.0005987567
-0.002949002 0.00035392967 0.0017006742 -0.0011803004 0.00037508953 -0.00045819723 0.00077302015 -0.0005875112
0.0014748682 0.000340321 -0.0023466274 0.003594168 0.00045875178 -0.0023789618 0.001144386 -0.0024973291
0.002832543 -0.0002361192 -0.0024997606 0.0012509499 -0.00018449085 -0.0042505045 0.0031000793 -0.005602812

exp_avg_sq f4 [128, 8]
00000000: c888 2f38 f08b e535 d700 4b38 38f1 4a38
00000010: 46b5 db35 9aad 7438 59df 4038 f33e 8738
00000020: 07b0 8d38 e703 3936 9607 9238 36fe 7038
00000030: 3fd6 3136 1913 8338 1356 8a38 c3c4 ab38
00000040: 3754 0137 7c9a b034 04ab 0137 d5c7 a236
00000050: 1693 a934 d168 f236 cfec 2336 9734 e536
00000060: 8001 0e38 58cf a635 4c7e f337 636e 8e37
00000070: e538 a435 b62d c737 9d2a 0038 07bb 3438
00000080: 8aa4 2a38 1885 b235 4faa da37 d549 ce37
00000090: 892b ae35 be8d fd37 6632 c337 95e4 ca37
000000a0: 4998 1639 ca98 c236 001b 1739 ca46 fb38
000000b0: d8c9 b936 8aba 2c39 ab36 1039 3d3c 4639
000000c0: 7edd 6037 c4ca 1c35 9b57 6e37 b376 0a37
000000d0: f6fb 1735 201e 5c37 bed2 cf36 0946 0037
000000e0: b538 cd38 5e48 7936 655f c738 4823 9d38
000000f0: 7b07 7036 7af6 c838 570d e238 a8f6 0c39
00000100: dafe 2438 d7c1 db35 f3c1 1d38 20aa 2b38
00000110: 85e1 d035 f97c 5f38 1e04 cb37 c5a1 2f38
00000120: b00a fc37 2f7e a535 8fe2 0138 0267 2c38
00000130: 1e6a 9535 a450 5638 1382 2c38 d6e9 7138
00000140: 2775 b836 9674 8034 fddd b736 e5da a136
00000150: a066 7434 761b 0337 5c74 4036 60a0 9236
00000160: d547 e338 11ec b036 563b 1339 3598 3d39
00000170: 474a a336 617d 2639 9756 1f39 7ea2 3739
00000180: 9a1e 1938 af80 0936 5f20 8038 726c 7038
00000190: 7615 0436 cee9 4338 4d6a db37 3f12 1e38
000001a0: 88fa 8a37 e0db 0f35 bf27 4337 b1cd 2e37
000001b0: a500 0935 3b23 5b37 76ca b136 8b07 2137
000001c0: f641 2a39 0e4b e736 6ce0 2a39 a8c3 1f39
000001d0: 5ff1 db36 431f 3c39 3c6a 1c39 3067 3539
000001e0: efb2 d338 489e 8536 a1ca d038 c44b a138
000001f0: 3f25 8036 d0a1 fe38 e4f9 e738 5ae1 2339
00000200: bbce b036 1f6a da34 f648 2737 1c66 9437
00000210: 78f9 c834 e56c 5837 1a00 5836 f2f7 2e37
00000220: 719b cf38 59a9 8836 1c52 df38 1a18 cd38
00000230: 7d74 8236 8b3d c138 7713 d338 efb2 0639
00000240: 30ad ac38 db0a 7d36 f942 bf38 397f af38
00000250: f027 6f36 7cf8 ce38 9a6b 9c38 81c2 9438
00000260: 60b5 7737 c2be 0635 7170 7037 6a92 1e37
00000270: b28b 0035 0dc6 7c37 645e 5637 bb8c a437
00000280: c2b4 b038 7ec0 8636 f466 b438 983d c238
00000290: a025 7736 7d7f ea38 0d23 9138 724c 9338
000002a0: 636b f238 133f b136 cd41 f838 c8e1 1939
000002b0: 6825 a336 2dde 3c39 e403 fe38 4186 1639
000002c0: b1a5 5738 b8a8 0f36 eb87 2838 2a93 4538
000002d0: 0ff4 0936 6702 3138 ca8e 0138 8936 f537
000002e0: 6f9f 5c38 f6f1 0436 0644 5738 a983 5038
000002f0: dbfb f735 88a3 8a38 caf0 a438 6b7d c338
00000300: 00a0 ad37 c283 3535 afa4 8637 6304 e536
00000310: d085 3035 c706 3f37 0e58 cd36 83df 1037
00000320: cfc7 c537 4983 7235 2a72 c337 810e b437
00000330: 23e3 6235 d704 0c38 145c 0a38 3e7c 2b38
00000340: f054 8a38 c366 4836 339b 9238 b423 8938
00000350: a997 3e36 28e7 ae38 dc1e 2538 c0de 9038
00000360: 4110 a438 fcf1 6536 65f4 9838 e9f3 9938
00000370: 122f 5a36 1e96 c938 0068 0b38 7a0a 6438
00000380: c019 9e37 9c08 6c35 5cfe b937 b653 e337
00000390: 419e 6335 4a9e b437 c6e9 9c37 55b4 bd37
000003a0: 5a31 c138 7f45 6936 8cf8 9e38 ee23 3f38
000003b0: 3bd9 6336 5147 9e38 3beb 3a38 7e43 9c38
000003c0: 8824 1b38 fb11 ca35 1637 0d38 08e0 ca37
000003d0: ee40 c035 8eb1 3d38 0b5b e037 84f8 2538
000003e0: 9043 9338 d44e 4d36 fa8b 8d38 1e32 ad38
000003f0: 57a5 4236 62ce f538 2637 4338 4ead a738
4.185064e-05 1.7102557e-06 4.8399754e-05 4.8385205e-05 1.6369529e-06 5.8335812e-05 4.5984376e-05 6.449027e-05
6.7561916e-05 2.756942e-06 6.9632355e-05 5.745721e-05 2.6499763e-06 6.250124e-05 6.596385e-05 8.190565e-05
7.708607e-06 3.2894957e-07 7.728817e-06 4.8512397e-06 3.1585722e-07 7.2243643e-06 2.4426733e-06 6.830854e-06
3.3856835e-05 1.2428309e-06 2.9026669e-05 1.6979122e-05 1.2235511e-06 2.3743934e-05 3.0557265e-05 4.3089527e-05
4.0684397e-05 1.3300769e-06 2.6066931e-05 2.4591494e-05 1.2976681e-06 3.0225954e-05 2.326928e-05 2.4186718e-05
0.00014361845 5.7994375e-06 0.0001441054 0.00011981798 5.5369273e-06 0.0001647269 0.00013753276 0.00018905192
1.3403011e-05 5.840959e-07 1.4206303e-05 8.253078e-06 5.6618535e-07 1.3120036e-05 6.1936144e-06 7.645701e-06
9.785724e-05 3.7146015e-06 9.506828e-05 7.492915e-05 3.576714e-06 9.582653e-05 0.000107790045 0.00013443327
3.9337996e-05 1.6373186e-06 3.7612346e-05 4.092802e-05 1.5562842e-06 5.3283733e-05 2.4201403e-05 4.187391e-05
3.0045718e-05 1.2330182e-06 3.0966996e-05 4.110393e-05 1.1132249e-06 5.109668e-05 4.1129137e-05 5.7676654e-05
5.4972656e-06 2.3926685e-07 5.479668e-06 4.8236566e-06 2.2761606e-07 7.814602e-06 2.867796e-06 4.369809e-06
0.00010837583 5.2726905e-06 0.00014041117 0.00018081146 4.8664256e-06 0.00015877701 0.00015195679 0.00017512773
3.6506543e-05 2.0489495e-06 6.109545e-05 5.7321457e-05 1.9682025e-06 4.670937e-05 2.6156335e-05 3.768713e-05
1.6567545e-05 5.359161e-07 1.163216e-05 1.0419099e-05 5.1037415e-07 1.306162e-05 5.2985806e-06 9.598104e-06
0.00016237036 6.893074e-06 0.00016296067 0.00015236309 6.554808e-06 0.00017940723 0.00014916895 0.00017299945
0.00010094593 3.9821352e-06 9.9559555e-05 7.691191e-05 3.8190333e-06 0.00012141804 0.00011061484 0.00015628841
5.2692753e-06 4.0682878e-07 9.970963e-06 1.7690523e-05 3.7434415e-07 1.2899957e-05 3.2186567e-06 1.04289375e-05
9.8994824e-05 4.0728305e-06 0.00010648763 9.779651e-05 3.887863e-06 9.2144204e-05 0.0001006489 0.00012845894
8.233858e-05 3.7706257e-06 9.120064e-05 8.368347e-05 3.5637022e-06 9.869129e-05 7.458702e-05 7.093419e-05
1.4764577e-05 5.019648e-07 1.4331295e-05 9.451624e-06 4.7887e-07 1.5066483e-05 1.2777371e-05 1.9615856e-05
8.426003e-05 4.0159202e-06 8.602245e-05 9.2621136e-05 3.6827769e-06 0.00011181736 6.9206675e-05 7.023745e-05
0.000115594616 5.282354e-06 0.00011837818 0.00014675327 4.862133e-06 0.00018011844 0.000121123885 0.00014355128
5.1414307e-05 2.1406868e-06 4.0180905e-05 4.7105517e-05 2.0556652e-06 4.2202326e-05 3.088898e-05 2.923167e-05
5.260057e-05 1.9810373e-06 5.1323346e-05 4.9713683e-05 1.8476234e-06 6.610813e-05 7.86498e-05 9.3216855e-05
2.0697713e-05 6.761949e-07 1.6050732e-05 6.8252425e-06 6.575983e-07 1.1386065e-05 6.119727e-06 8.635109e-06
2.3577273e-05 9.034307e-07 2.3298973e-05 2.1464426e-05 8.452209e-07 3.338311e-05 3.298752e-05 4.0885287e-05
6.5961736e-05 2.9862138e-06 6.9907306e-05 6.539319e-05 2.8400484e-06 8.340023e-05 3.9367806e-05 6.9079455e-05
7.823157e-05 3.4264513e-06 7.293447e-05 7.34104e-05 3.251193e-06 9.6123884e-05 3.323704e-05 5.4369193e-05
1.8847059e-05 8.792938e-07 2.2172164e-05 2.709949e-05 8.479438e-07 2.1531381e-05 1.8705508e-05 2.261453e-05
9.2121496e-05 3.4760158e-06 7.5803226e-05 4.557141e-05 3.395208e-06 7.547311e-05 4.456493e-05 7.451231e-05
3.6988902e-05 1.5055406e-06 3.3668322e-05 2.41846e-05 1.4324012e-06 4.5226472e-05 2.6745276e-05 3.9570514e-05
7.022091e-05 3.0593264e-06 6.7494766e-05 8.258618e-05 2.9004493e-06 0.00011720952 4.6542984e-05 7.995461e-05

exp_avg f4 [128]
00000000: 4609 f639 e106 423a 5ab0 55b9 97b6 e339
00000010: 4810 b339 0d16 463a 0a19 6a39 b07d 593a
00000020: 8ffa 38b8 3166 133a 566e 26b9 9efb 8a3a
00000030: 9b0c d6b7 09ba 7ab7 3a62 0b3a d834 913a
00000040: 3ff4 9b39 adb3 ac39 c495 8c39 699d d1b8
00000050: 0738 be3a e830 643a 30f3 0c3a 5e8a 153a
00000060: f12d 01ba dd6e fc39 fdad 573a 4b7b 9f3a
00000070: b38c 6237 a58f 393a 1c6d 323a c496 f7b9
00000080: 502a 1e39 5eeb 973a 5150 41b9 6f81 5739
00000090: e198 f638 3254 793a 3750 833a 7a35 84b9
000000a0: a528 a5b8 3f02 0839 2cec 4939 520f c5b9
000000b0: b8f0 9cb8 9f18 be39 efff 9fb9 3197 883a
000000c0: 13e0 b8b9 f8a8 acb9 0d32 13b9 f1bc 2b3a
000000d0: 2f7c 4d39 daf7 e7b9 3ccb ff38 c2a0 ee39
000000e0: eb41 763a 82eb a939 4e98 323a c0fd 4cb9
000000f0: b276 4a3a 77f7 96b8 b3a9 a23a 40df 94b6
00000100: 00a3 1a3a 3a2a 2239 2b5d a439 3404 31ba
00000110: 7216 9e39 e879 eab8 942e bd39 db6d 5a37
00000120: 2974 feb7 fd19 3eba ccd6 cab9 71bf 8d39
00000130: 6cd1 a138 0be7 113a e6e2 65b8 8f38 013a
00000140: a4f7 8439 bf95 27b9 98b3 403a 97dc 19ba
00000150: 20c4 8eb9 4787 0e37 b736 3c39 603f 9439
00000160: 3995 873a 79a8 4f39 893a 7c3a 17b4 2a3a
00000170: 1a6b 1d3a 733c 84b9 77ff 7438 2113 59b9
00000180: 4c18 253a 9dd0 f339 2312 8fb9 eec3 903a
00000190: 6b88 7fb9 efa4 4439 3942 3d3a c0b7 3539
000001a0: 6f8b 1fb9 27ef 7d39 ce38 113a 166c 193a
000001b0: d33d 0039 f319 8539 b6cc 2cb9 5c1f 8d38
000001c0: 0ced ce36 949a 013a 52aa 48ba c506 2f3a
000001d0: 7837 7438 0e56 953a 7227 4736 cca3 023a
000001e0: 4b3c 343a 52bb d739 0eab 4737 0269 0d3a
000001f0: 2eab e2b8 47d3 b839 ec42 d238 ab33 cf39
0.00046927686 0.0007401538 -0.00020378959 0.00043432854 0.0003415367 0.00075563864 0.00022325307 0.0008296622
-4.410237e-05 0.00056228327 -0.00015872097 0.0010603552 -2.5516658e-05 -1.4944476e-05 0.0005317066 0.0011078371
0.0002974588 0.00032940265 0.00026814465 -9.9952165e-05 0.0014512547 0.00087047974 0.0005376814 0.0005704517
-0.0004927805 0.00048147785 0.00082275254 0.0012167481 1.3503409e-05 0.00070785946 0.00068064197 -0.0004722384
0.00015083817 0.0011590531 -0.00018435834 0.00020552216 0.0001175867 0.0009511142 0.0010018413 -0.00025216845
-7.875384e-05 0.00012970807 0.00019256835 -0.00037586183 -7.483497e-05 0.00036257968 -0.0003051753 0.0010421035
-0.00035262163 -0.00032932288 -0.00014037658 0.0006551287 0.00019596585 -0.00044244417 0.00012197203 0.0004551467
0.0009393978 0.0003240966 0.00068128563 -0.00019549485 0.00077233755 -7.198651e-05 0.0012410193 -4.4367334e-06
0.00058989227 0.00015465255 0.00031349933 -0.00067526405 0.00030152831 -0.00011180696 0.00036083593 1.301939e-05
-3.033325e-05 -0.00072517974 -0.00038688479 0.0002703625 7.716086e-05 0.0005565739 -5.480917e-05 0.00049293874
0.0002536151 -0.00015982146 0.00073509803 -0.0005869357 -0.00027230475 8.495356e-06 0.0001794946 0.00028275978
0.0010344154 0.0001980382 0.00096217595 0.0006511821 0.0006005034 -0.0002522204 5.8412053e-05 -0.00020701859
0.0006297871 0.00046504 -0.00027288598 0.001104472 -0.00024369515 0.00018753459 0.0007219646 0.00017329957
-0.00015215365 0.00024217051 0.00055397756 0.0005852593 0.00012230063 0.0002538707 -0.00016479459 6.729245e-05
6.1668743e-06 0.00049439934 -0.0007654774 0.0006676729 5.8225793e-05 0.0011393444 2.967627e-06 0.0004983514
0.00068754394 0.0004114756 1.1901151e-05 0.00053943705 -0.000108084045 0.0003525263 0.000100260455 0.00039520612

exp_avg_sq f4 [128]
00000000: f18b e536 e603 3937 7e9a b035 58cf a636
00000010: 1885 b236 ca98 c237 c5ca 1c36 5e48 7937
00000020: d8c1 db36 317e a536 9674 8035 10ec b037
00000030: ae80 0937 e0db 0f36 0d4b e737 489e 8537
00000040: 1f6a da35 5aa9 8837 dd0a 7d37 c2be 0636
00000050: 7fc0 8637 143f b137 b8a8 0f37 f5f1 0437
00000060: c283 3536 4b83 7236 c366 4837 fdf1 6537
00000070: 9d08 6c36 8045 6937 fd11 ca36 d24e 4d37
00000080: 3acf e534 4b0b 9937 d615 ab37 fdf1 c236
00000090: b893 0e37 c9f6 fa36 c8e8 b537 fdfd 3736
000000a0: 64c2 4536 1030 6a35 7e2f 9f36 d2f5 8435
000000b0: f01e 6b37 6965 5036 f0c8 ba36 6fea cb37
000000c0: ebe6 0837 abe6 fb36 5a1b 3936 e4e1 8836
000000d0: f93f 0036 bafa 7336 a507 8e35 d0b4 9337
000000e0: ca4f 2437 6d59 1736 19eb 1337 85d8 2f36
000000f0: 3351 8a36 477b e336 7c37 ab37 251f 0e37
00000100: cda6 3237 3677 2236 f125 5336 7e8a 8436
00000110: fe45 a036 eee1 1437 f6e1 5c36 7d2e 9f36
00000120: 1704 9136 caba 4b36 61e2 0937 6bbd 2936
00000130: ddfa 8636 4023 5c36 df5b 4d35 57a6 f835
00000140: e38b 2436 9bff 6635 3975 f836 b7a1 bb36
00000150: c460 4a36 4abe 8d36 7ca0 6736 b5e6 0e36
00000160: 17ec 7837 fdc8 4a37 1b2b 6e37 a32c 2637
00000170: 364b 7f37 a82b 8636 f3f0 0936 2cd5 a235
00000180: 57ed b135 ff11 7d36 bb11 0b36 4d30 8337
00000190: fe9b 2e36 c87a 1537 170e ef36 ed18 a136
000001a0: c1cd 5936 ea92 a936 33b1 3d37 dfad 9636
000001b0: 19e6 7d36 2f8d 5a37 9813 d835 8723 2537
000001c0: 6c51 b635 65ae 1637 a5f3 0536 cfd4 8436
000001d0: af8c 2737 a35d c337 d021 e135 c720 3837
000001e0: 468a 9336 f5b2 1e37 4f65 a436 17b1 2937
000001f0: 65de c135 6d96 2936 aa65 5d36 9b39 7a36
6.841023e-06 1.1027767e-05 1.3157985e-06 4.9713235e-06 5.3203075e-06 2.319775e-05 2.336384e-06 1.4858406e-05
6.549275e-06 4.932074e-06 9.570674e-07 2.109076e-05 8.195797e-06 2.1436645e-06 2.7572294e-05 1.5928541e-05
1.6273151e-06 1.6291324e-05 1.5082504e-05 2.0078592e-06 1.6063683e-05 2.1129417e-05 8.562747e-06 7.924148e-06
2.7047795e-06 3.6137233e-06 1.1944855e-05 1.3705806e-05 3.5171754e-06 1.3904064e-05 6.0221632e-06 1.2237304e-05
4.280535e-07 1.824428e-05 2.0394957e-05 5.8098217e-06 8.498253e-06 7.47931e-06 2.1685279e-05 2.7416966e-06
2.9468438e-06 8.7241733e-07 4.744098e-06 9.90631e-07 1.4014295e-05 3.1053444e-06 5.566624e-06 2.4308652e-05
8.1599965e-06 7.507236e-06 2.758307e-06 4.079413e-06 1.9110723e-06 3.6355764e-06 1.0582049e-06 1.7607963e-05
9.793739e-06 2.2552806e-06 8.816621e-06 2.6203063e-06 4.1221733e-06 6.7794786e-06 2.0410625e-05 8.471111e-06
1.0648463e-05 2.420927e-06 3.1463535e-06 3.950029e-06 4.7765197e-06 8.874091e-06 3.2914081e-06 4.743981e-06
4.321813e-06 3.0358083e-06 8.218544e-06 2.5293218e-06 4.0227155e-06 3.2803073e-06 7.650214e-07 1.8525851e-06
2.451933e-06 8.605363e-07 7.4046225e-06 5.5918604e-06 3.015667e-06 4.22428e-06 3.4515097e-06 2.1293938e-06
1.4836921e-05 1.20869345e-05 1.4195942e-05 9.904764e-06 1.5216696e-05 3.9985935e-06 2.0554842e-06 1.2131982e-06
1.3256603e-06 3.7710413e-06 2.0722935e-06 1.5638909e-05 2.601882e-06 8.909679e-06 7.1243953e-06 4.8010756e-06
3.2455284e-06 5.0536955e-06 1.1306535e-05 4.4905896e-06 3.7833872e-06 1.3026684e-05 1.6098957e-06 9.843038e-06
1.3583754e-06 8.981301e-06 1.9960364e-06 3.9586807e-06 9.986731e-06 2.3289414e-05 1.6773647e-06 1.0974886e-05
4.3970385e-06 9.459201e-06 4.8993747e-06 1.0114417e-05 1.4444346e-06 2.5270522e-06 3.2990743e-06 3.7286434e-06
